src/models/0_g_training.pt (torch, 130872 bytes, 4 tensors)

network.0.weight f8 [80, 198]
00000000: 3ab8 5540 606d d2bf 4daa 8f7f 8f3d dabf
00000010: 8183 1609 5c46 f3bf 924a 0744 0595 e9bf
00000020: 7d8d 7c52 9ce7 f8bf 6de8 6c54 69af dfbf
00000030: 0868 5bb4 7e29 d5bf d7c4 7ae2 0243 f5bf
00000040: 8dab f52c 86ea f53f 06cb 6974 c811 d9bf
00000050: 4fea 4cf1 da8f e6bf b5ac d79e a9cb dabf
00000060: 14b8 bce1 e6d1 fd3f 09f7 9ef1 d46d db3f
00000070: af58 b7e0 82d8 e8bf 1cc0 78f2 60bd d3bf
00000080: 0813 8418 2916 e33f cc97 3df4 a0eb 0040
00000090: d338 d5ad a6c5 f43f 397b a6bd 5516 d6bf
000000a0: acde 0d67 2811 e5bf 13f5 575c 7524 d93f
000000b0: 1a5a 07c6 8c48 f0bf ecc9 a3aa ceab d1bf
000000c0: 49e0 c699 1975 b6bf a491 f5fd 6825 f3bf
000000d0: 1b8e 9455 7c96 c1bf ec4f b874 fd48 d8bf
000000e0: 172a 313d 6228 e03f 4a59 70f0 94e6 f0bf
000000f0: 8dd2 a8c5 3f9a e0bf b4a2 32a1 44a4 d33f
00000100: db16 d940 e4c1 eebf a4ac d97a faae cebf
00000110: edcc debb c894 d83f 9364 5a27 4d2d 07c0
00000120: 4868 75a0 3425 f13f e112 68e3 6720 c53f
00000130: 6ae9 4829 e0cc ebbf fead c2d0 8fb7 e0bf
00000140: f1f6 62da 3552 f3bf 776c 6111 1800 debf
00000150: 5e8c 7ed6 9b61 85bf c2f3 d6f3 1709 b2bf
00000160: 3bc5 7add bbcd f3bf e197 5060 5609 f8bf
00000170: e487 3245 c202 f4bf 4d0e 3698 9237 f03f
00000180: 14e8 b039 c34d e03f 88a8 b0a4 5f23 d23f
00000190: 2939 cdb7 6b84 f2bf 6b70 3ed6 6a75 0140
000001a0: dcca 737d 79b1 d6bf d6f1 06e9 2722 0140
000001b0: 267b 53d7 3d7e e5bf 4a52 cd99 ba59 e23f
000001c0: 7d7b 71e6 aef1 e03f 35cb fda9 6ee5 d5bf
000001d0: fe13 2e2a 0855 f03f c164 b8b6 1aad 0840
000001e0: 9038 ac1d 9503 e63f f6be ce89 3c4d f43f
000001f0: 2b17 e62c 07fa f1bf 9e3a ac99 ced2 c83f
00000200: 905f 37c2 f95f d33f 456e b52f 40d4 de3f
00000210: d9a6 204b cb38 c73f 2232 592b e0a3 01c0
00000220: 8b3d 2738 ddf6 a33f dcf4 5f43 93da e13f
00000230: 97a7 da56 351a c6bf 1a24 aa91 bd8e c9bf
00000240: e8bb b7d8 67ef f43f 1114 f71d e7dc 0140
00000250: a88c a7f7 edc5 e8bf 1088 a68e a906 d4bf
00000260: 47e7 729e aa75 e4bf 45df 4954 170b cabf
00000270: 0d12 1c3f 54c2 f6bf 2b60 5449 b98f fcbf
00000280: 98a8 e074 5b20 f03f 9d8b dc19 db1b d3bf
00000290: 310a c133 9346 e6bf 16d2 bd56 8758 e2bf
000002a0: 8b7c 7d86 16ff ffbf 7fc9 6fdf adc0 913f
000002b0: 5658 9634 c710 f3bf c672 41e1 27c5 a43f
000002c0: a03a fb98 2581 d1bf 136c 2433 4fe3 d9bf
000002d0: d310 0e91 13e5 de3f fb30 ce21 a02a f03f
000002e0: 5e60 e26c dc79 d73f 640e 2c73 ac55 a6bf
000002f0: 41e5 d15a da97 bbbf 316d 6581 cc3b fe3f
00000300: 3339 89e3 4ee9 ea3f b7bf f45b eb0a b4bf
00000310: a833 c7e4 67c7 e6bf 8c9a e485 897c cc3f
00000320: cd41 d3f7 df17 c8bf 7172 815a 4f08 e33f
00000330: 49a1 7ff9 2b94 f73f 415b ce0e 7c9e e0bf
00000340: 3a41 3d94 b459 c43f 428e 854e ce5d fe3f
00000350: 78c4 4dee fced eabf 0461 7566 d72d f1bf
00000360: 7147 9dc8 d7fb e0bf f6ab ccb4 70d1 eabf
00000370: 6589 279f 87e3 01c0 388e b92b 4cb1 da3f
00000380: 402e e159 2769 e9bf 21d6 4fa5 fb58 cdbf
00000390: 9a64 7f75 dbb0 e6bf cb49 03ad 3c69 bdbf
000003a0: f05f ea80 28b9 efbf edf4 55ae b467 03c0
000003b0: aba3 ac16 1c94 e2bf a3f4 4491 870c ab3f
000003c0: 9863 6aa6 5841 b53f b43a a254 3726 ef3f
000003d0: d8b9 0a73 6916 f33f a0b9 f69a 0d47 dc3f
000003e0: 037e 5b01 2238 ebbf 3db9 2279 babb f2bf
000003f0: 94d2 82e3 85a9 f03f 47f3 b542 9158 d33f
00000400: 8de4 45dc e373 fabf dd0b 77b6 9910 0040
00000410: bd5e a9b6 6b15 e5bf 50bb cc4b 3dff b9bf
00000420: 0b79 1306 ac45 e1bf 9837 dc86 0fb8 ee3f
00000430: 2f89 3978 7990 c13f ea10 8e8b 67d2 e83f
00000440: c0a3 1c68 1eb6 efbf 104b a7be 1d10 b2bf
00000450: ab18 b93a 3cd1 b03f 5aa4 fa84 f954 d6bf
00000460: 1af1 94e0 9267 f0bf 278b e225 3196 d0bf
00000470: 3c8c 31f6 b1ff b8bf 1895 281e 9998 a6bf
00000480: e3ef 125d 13b8 b83f 5802 4123 dcda d6bf
00000490: c571 1026 c52e d9bf 5617 7ef5 9150 fa3f
000004a0: b6de 9b52 5bfb d4bf ea86 5fe5 73c8 dfbf
000004b0: c122 768e e46f d1bf ea83 efea e3de f4bf
000004c0: 4480 b029 75ab f5bf 1077 e539 79f3 f1bf
000004d0: 6212 5ee1 5f8e dc3f e72b 684e 9584 bbbf
000004e0: 72c3 67b0 c8d4 c1bf ef1f d32c 9bb2 f73f
000004f0: a784 b26b d9f0 b93f 9b6d a680 7e86 cf3f
00000500: 2acd 7cfe edb0 e9bf f811 1a3a a6b0 f83f
00000510: ae07 848b 488f e33f 0152 4a59 f3aa b33f
00000520: 9ca5 ac59 dd5a 9dbf 9cb0 13bf e242 f73f
00000530: 6285 dd9b 4284 e4bf 3fb5 a1b3 4924 ee3f
00000540: 1345 3cf1 9950 00c0 3622 a9b6 b9ee ccbf
00000550: 52dc 8389 958b ebbf abf7 fdf3 d49d d0bf
00000560: afb6 fdae 78ee aebf 5e86 a432 764e fc3f
00000570: be32 2dd3 f472 c9bf ed92 b0e0 80bc e53f
00000580: e479 a75e 5a56 fabf c29f 0574 1b74 d23f
00000590: 881f e760 470d fc3f 8cc9 6dbc 40d8 c3bf
000005a0: 2667 0317 46cd e1bf 4a20 a696 5541 fd3f
000005b0: 7dba 8425 66ca b13f ac88 02c2 3f49 da3f
000005c0: 6a41 a28c 40a3 e2bf f216 3289 fe13 fb3f
000005d0: 1cab 565a ffcd e13f 2c31 8069 7b86 e83f
000005e0: 44a4 9d59 9f2a a33f 9332 9976 bc9c b5bf
000005f0: 66c0 509b f483 0540 0fba 0f71 633f f23f
00000600: 3590 7db1 d50d e2bf cdd4 da42 1383 ebbf
00000610: b3fc 4b16 2422 fdbf 933b 86ca 108e 0340
00000620: dcd7 3c8b 7115 f63f 70a6 2363 ea69 e73f
00000630: 4655 452e c01c e5bf 7baa 1ff0 1458 d13f
00000640: 0a10 878e 5fd0 c83f 7c92 f079 d458 f53f
00000650: 0b1a 0e96 f114 f73f eb18 152e b0da fbbf
00000660: 8ea0 4b68 e5ed fc3f d892 0b3e a844 b63f
00000670: a3aa 386c cc78 e23f bf3f d065 bf2a f73f
00000680: 9473 d362 2b72 f0bf 706f 60ff 973b e33f
00000690: 8b14 daa8 7b61 963f 32c5 f549 1aaa cbbf
000006a0: 0f77 aaf2 8456 e33f bc1e 39f6 7bb1 d7bf
000006b0: bb1e 2530 8d7d f83f 8c8b e3e5 a520 b8bf
000006c0: 7a27 94ba 58b5 f03f a37d 14ab ef60 d33f
000006d0: 27c4 03ab 3a76 fd3f e771 21d7 3d7c e0bf
000006e0: ef24 fb6b 00fe e83f 5b86 4e6f 17c5 e5bf
000006f0: d401 2737 e437 e83f 9cdc 8490 c005 d03f
00000700: cf3c c682 8229 e73f f693 2bd9 c008 e13f
00000710: 4477 79e3 fc6c d5bf 40bb 39dd 46e3 e03f
00000720: f08d 6042 1c1b bd3f c4c2 c185 7882 ddbf
00000730: 61b6 c34f a9d5 e2bf 68f3 309f d7f7 e6bf
00000740: ad46 675f ee6e 0040 999b e655 ae78 793f
00000750: 3a33 bfff 72c8 d3bf bed9 95c8 0a93 c63f
00000760: fd4e 3df7 9f24 0140 4869 c3bd 0753 f33f
00000770: 3702 29a4 7317 ea3f 8416 71f4 9222 f03f
00000780: 5469 c266 a8fb ed3f c176 f2c3 86be d63f
00000790: 4496 b6da 44df e4bf 063f 70d9 7ace dabf
000007a0: dafd 715d bfb2 e2bf 245e 2725 b115 e33f
000007b0: 30a9 aa18 e8c7 e33f aca1 d2cf fc22 ef3f
000007c0: cfda 86c4 6859 7dbf 0de0 b5b5 69ca df3f
000007d0: 2b46 5a89 814a cbbf 6151 e974 4698 e8bf
000007e0: 803e 1fc1 57f4 fdbf a8e8 7c32 1b12 a83f
000007f0: 7b67 bb4a e82a e2bf cd4c 8cf4 f2cf cb3f
-0.28792578013133474 -0.4100073571886796 -1.2046776156423393 -0.7994409874612123 -1.556545564854644 -0.4950812649218566 -0.33065765011781467 -1.328860172925763
1.3697568660961423 -0.3917103897903619 -0.7050604546451015 -0.4186805773922047 1.8637455766543143 0.42857860179707125 -0.7764295948971006 -0.3084337585341943
0.5964551428629372 2.1150530892655066 1.298254660639533 -0.3451132156423458 -0.6583444607521947 0.3928502466004186 -1.017712377118761 -0.27611128486674263
-0.08772430424039714 -1.1966333313258497 -0.13740495852208387 -0.3794549598544552 0.5049296565205762 -1.0562943832533898 -0.5188292370354063 0.3069011282155245
-0.9611684099733923 -0.23971491812276213 0.38408106180868523 -2.8971198152981485 1.0715833919444027 0.165051446951245 -0.8687592321723916 -0.522407443747795
-1.2075708895421793 -0.46875573823280753 -0.01044008014998193 -0.07045125678173661 -1.2377279902978688 -1.5022796404168661 -1.2506735518477337 1.013567537855937
0.5094925047662877 0.28340903361334613 -1.1573292903663719 2.182332681446544 -0.3545821881408935 2.1416776852840753 -0.671660347517762 0.5734532360025437
0.5295023442121046 -0.34212843514176267 1.0207597396522483 3.084523608686681 0.6879373149438539 1.2688565619573047 -1.1235419992312454 0.1939333200793571
0.3027328869479726 0.4817047563462647 0.18142071884476854 -2.205017412814656 0.03899279890503767 0.5579315486826562 -0.1726748155681974 -0.19966859447984647
1.308448645165976 2.2328626957919444 -0.7741613232614286 -0.3129066365310118 -0.6393635840133606 -0.20346347442295545 -1.4224436249943466 -1.7850888122975543
1.00789971976568 -0.29857518697297697 -0.696115113336708 -0.5733067220849672 -1.9997773412249298 0.017336575281612362 -1.191596227091869 0.04056667923643924
-0.2735074991186739 -0.4044988631664534 0.48273171582719704 1.0104066200756836 0.3668128074000431 -0.04362238794240339 -0.10778584210665533 1.8895993284739456
0.8409799999297206 -0.0782916163923336 -0.7118415325472727 0.22255057370894737 -0.1882286033710571 0.5947644012154126 1.473674749950151 -0.5193462647610901
0.15898759115453648 1.8979018275503141 -0.8415512709017454 -1.0736917497907266 -0.5307425420998994 -0.8380664378395284 -2.236098521608414 0.41707138319017956
-0.7940861468754932 -0.2292780453860113 -0.7090890211940348 -0.11488703941294102 -0.991352321422708 -2.4256375904066005 -0.5805797999247394 0.052829967959476386
0.08302835524444985 0.9734150555612673 1.1929716581176901 0.4418367398565355 -0.8506021524917177 -1.1708321315632724 1.0413874518536987 0.302280726573191
-1.6532934765257636 2.0081056838111935 -0.6588648383721744 -0.10155089474276946 -0.5397548788712653 0.9599683412541138 0.13722151155804727 0.7756841397936374
-0.9909812959132225 -0.07055841354967307 0.06569267686527051 -0.3489364431976064 -1.0252865574576107 -0.2591669912309719 -0.09765159855446454 -0.04413298123498971
0.09655877134622375 -0.3571081489826944 -0.39347962109766527 1.6446704473068698 -0.327841597244951 -0.4966096630069915 -0.27245439445736613 -1.3044165780231602
-1.35435978207535 -1.1219417821479887 0.4461898518423252 -0.10749180950385516 -0.13930615056554135 1.4811050177540854 0.10133131865815646 0.2462919357466092
-0.8028478594264119 1.543127276382732 0.611240646831211 0.07682724885882665 -0.028666933630267274 1.4538295234624803 -0.6411450428242171 0.941929674952611
-2.039356121684827 -0.22603532237032348 -0.86078907831587 -0.2596332915053334 -0.06041314254876561 1.7691556909780028 -0.19882068930964708 0.6792606724235078
-1.6460822770528631 0.2883366234805146 1.7532418999926183 -0.15503701401355519 -0.5563078355291722 1.8284507641528926 0.06949461379984175 0.41072076746253106
-0.5824282404665102 1.6923814162450381 0.5563961758065008 0.7664162693559198 0.037434558572222915 -0.08442285438031609 2.6894313940065784 1.1404756943189829
-0.564188810978982 -0.8597503953702926 -1.8208351965875351 2.4443679640020917 1.3802352370234905 0.7316791473687783 -0.6597596076705166 0.27100108575419996
0.19385904750208766 1.3341870082159906 1.4426132070090059 -1.7408906746000479 1.8080801080741682 0.08698512568259831 0.577245913858253 1.4479364373291757
-1.0278734074010787 0.6010246265245609 0.02185624330606521 -0.21612862216310585 0.6043114413803056 -0.3702077774546344 1.5306522255577153 -0.0942481695415564
1.0442740715247667 0.3027915163711105 1.8413645439397983 -0.5151662065287014 0.781006060505346 -0.6803090261420935 0.7568226887888678 0.2503510867422365
0.7238171152293037 0.5323185197454439 -0.33477709020904833 0.5277437516032037 0.11369492168937945 -0.4610883051127923 -0.5885817106151984 -0.7177541836932564
2.0541655972854955 0.006218605993502013 -0.30910944915085603 0.17636236948210454 2.142883235510338 1.2077710545186893 0.815362759232875 1.0084409283166744
0.9369699484844127 0.3553788102670801 -0.6522545119993954 -0.4188525317594983 -0.5843197655776138 0.5963979459438105 0.6181526643534081 0.9730209406889592
-0.0071653454291921844 0.4967293047443498 -0.21321124273940603 -0.7685882838655226 -1.872154001601217 0.04701313964183501 -0.5677377185449893 0.2172836011965046

network.0.bias f8 [80]
00000000: 1fbb 7310 0241 90bf 4665 c1d6 c9db a4bf
00000010: eded d32b f5cf abbf 0f9b 1422 8186 71bf
00000020: 2be4 b55b 259f ab3f 1df8 9d21 15d0 823f
00000030: ccfa efa7 627b 8b3f cb45 72fc c608 a3bf
00000040: 3029 800e f8d9 acbf 9868 c3da 4bf3 b13f
00000050: f0eb 5903 1105 a43f 9cd6 0318 7174 a9bf
00000060: f085 30e9 d356 b03f cf5d b589 0bb4 a2bf
00000070: ae40 2c62 5495 8d3f b002 c5a3 2c53 aabf
00000080: b388 5335 7a1a a43f dd3a b214 5726 923f
00000090: 117f 8a1d 88ad b03f b57a dbf2 af25 86bf
000000a0: d828 694c 75e1 b1bf 89d6 49ad fd7b a53f
000000b0: b9c9 c777 e2db 70bf 3e1a 99a6 32b6 9cbf
000000c0: 0875 dfd6 3d55 a93f 2f7d 9c82 ca9f acbf
000000d0: 5d45 1b5b 616d a03f d19d ef54 7081 93bf
000000e0: a240 0bed 414f a33f bf7c 9455 c6ab a03f
000000f0: af4a 3427 9c56 9fbf 3cb0 6ba9 db30 acbf
00000100: 0ac4 08ab 3e03 a5bf d220 b85b 9705 b23f
00000110: 035f 1003 f2cf 6f3f b8be 120e 3f0e 943f
00000120: a652 0c9c 9035 b1bf 017f 285c 16ec 9bbf
00000130: 84a7 d16a 1b95 a6bf 0042 6cc3 c8eb afbf
00000140: 8475 97da ca4a 93bf a3cd 11b0 7fc2 9abf
00000150: 09b2 0956 2559 7bbf ca45 ebcd debe a3bf
00000160: d19d 5ee7 dbfb aabf ddca af96 cbaa 92bf
00000170: f6e1 6027 7917 b1bf d95d 953b ac9d b13f
00000180: b0e4 999f cff4 a03f 5218 a171 3355 a43f
00000190: ccac 6e99 9f3c a93f cc87 0eda 14c5 603f
000001a0: 6ee2 b6e8 c8e8 a1bf bbac e52e ca5d b13f
000001b0: 489f e92c 3b8b b13f b04d 073b 1755 883f
000001c0: fb36 dfd0 35e8 803f 6583 5389 b0e6 92bf
000001d0: 690c d77d d8d6 a3bf 7288 ce29 b553 97bf
000001e0: 9496 3a37 b056 9ebf 0ba4 d16b f438 a93f
000001f0: 7822 f280 f4a3 b1bf a14b 8552 026d a73f
00000200: 35e6 8ad1 404f a6bf e4ce 2acb 1a8d a0bf
00000210: 088c 47cf da63 abbf eacd 0c25 e645 9e3f
00000220: 642f f9b7 91a4 98bf 8572 45a6 8c82 aa3f
00000230: 9a7f 5d7c 89a4 a13f a373 4f82 71a5 b13f
00000240: 4ab4 eb8e d633 9ebf 5baf 4a56 0ab1 b13f
00000250: 0537 e2b7 c664 ad3f b891 2cd8 34fd b1bf
00000260: ac30 028d 4da9 b0bf d3ef 3a90 74cc 9e3f
00000270: fcae fd7b ae0d a63f 5ed7 3517 3137 b0bf
-0.015872986082224757 -0.040739352669968684 -0.054320966339186906 -0.004278664041783355 0.05394856209290596 0.009185948456202958 0.013418932676356653 -0.03717634040470904
-0.05635047127732873 0.07011865702534903 0.03910115400227443 -0.049716505223768 0.06382488673309417 -0.03652988487254626 0.014444979902265533 -0.05141582011356627
0.03926450634914271 0.01772438110179563 0.06514788361755232 -0.010814070319097405 -0.06984646907327219 0.04196160068833616 -0.004115948333934965 -0.028038779657686634
0.04947846649131732 -0.05590660900474586 0.032084505435373535 -0.01904845732124533 0.037714061914472255 0.03256053728750307 -0.03060382832797853 -0.055060257369263316
-0.041040380838588034 0.07039781560172578 0.0038833357616673294 0.019585595354043334 -0.06722358522194813 -0.027267789244546318 -0.044106346883224595 -0.062345765929539
-0.018839997855925286 -0.026132578965599184 -0.0066768129769170315 -0.03856560004863814 -0.05270278167091259 -0.01822965724199831 -0.06676442347896469 0.06881214575456997
0.033117759926378 0.039712531681786914 0.04929064510300804 0.0020471007596407405 -0.03497913208724844 0.06783736844015469 0.06853074881075572 0.011881047715099097
0.008255405842557453 -0.01845813596890213 -0.038748517381031196 -0.022780256916697224 -0.02962756478395663 0.04926265541218563 -0.06890800617305526 0.04575354821522316
-0.04357340391056789 -0.03232654314106556 -0.05349620609538169 0.029563518534997536 -0.02406528172859569 0.051777262970721195 0.03445844309931019 0.0689307158604167
-0.02949462172812315 0.0691076718018712 0.057409486719832294 -0.07026987340629531 -0.06508335774032287 0.030076810172189838 0.04307313216744821 -0.06334215943010466

network.2.weight f8 [2, 80]
00000000: b722 1a8a 7e66 efbf 3cf5 3aee 19eb f9bf
00000010: 95a3 a573 e3c4 eb3f 1a77 a0da 04ed e0bf
00000020: aa20 c861 f309 da3f 2b60 f85b bfcc e13f
00000030: 3ba7 3138 45c5 d1bf 45b4 e18b eeaf e53f
00000040: 7bba 1a1c 31b3 fbbf 7460 c0af 80f3 ca3f
00000050: ef9c 45cf 80ae e93f 832d aed0 8dcc e3bf
00000060: a7e5 7457 7101 d0bf d800 b821 949a d33f
00000070: 9a2d 7752 8b36 f2bf 1cd3 3d8d 2f71 b43f
00000080: 4212 0450 d98a b4bf af59 60e8 b8b0 e93f
00000090: 2dbf 7e07 425d cbbf 989e 4a21 4a8e d83f
000000a0: d7d5 754f 10c7 c83f 6fae 21e8 e274 da3f
000000b0: 8068 6f91 6a50 f63f c6c3 5cef b4c2 d3bf
000000c0: b7a8 52ed 265f d4bf ff1f 17dc 8905 f03f
000000d0: a2ad 24d4 a327 debf bb0e b343 58ee f3bf
000000e0: f3e7 fc7c 3e9b e0bf f3eb 7739 9088 d3bf
000000f0: 7861 5392 f670 de3f 36a4 f682 a0bd d5bf
00000100: 27a8 a8e5 67f3 b53f 5e9a 3563 2060 eb3f
00000110: 0493 a41d f50a d9bf b950 746e fade dd3f
00000120: fc8f 4ed7 1762 de3f cc7c eae2 a72b d0bf
00000130: cf7d 3e28 e972 e1bf 6aca 7f13 6c8c f1bf
00000140: 7500 ab8b 24e9 d43f 2dce fec2 7e95 e03f
00000150: 05bc b41d aaa9 9b3f 1871 83cb 5f8d eb3f
00000160: f72c 6018 a644 fc3f ea0d c3d8 77de f5bf
00000170: 4b88 73b8 3b82 f0bf e055 5b5e 545e f0bf
00000180: 94e7 8258 0a94 f3bf d40f 6b5e 9b98 e53f
00000190: 9aa2 9d15 2d50 e1bf 3ae2 5d06 6609 e8bf
000001a0: 9719 7d6e 34da f43f 0a5e 0fc5 69e4 dc3f
000001b0: 9a84 e010 6c97 f13f bb41 e85c 2ceb b13f
000001c0: 894b cfd1 06da d0bf 9fca 1564 c2a8 f0bf
000001d0: bf91 93dd 15e0 f9bf 5e63 d867 9527 d8bf
000001e0: 493c c46e f006 c0bf 4f88 f285 f6f1 d0bf
000001f0: 1908 81f9 208d bdbf 1805 95a3 7193 e43f
00000200: b05c eadf 9e92 643f 86fb 56a9 87c2 f1bf
00000210: c925 fb22 017a dd3f 08ba 2fe9 06d0 e5bf
00000220: ebb3 f088 676c d43f 5e99 bcf3 d6c1 e1bf
00000230: 7172 5c08 bcb5 e7bf bc36 c7be c8a0 f23f
00000240: 4cfd 5d8d a9e6 e73f d4db f4a3 eed3 f13f
00000250: f53c f770 4c70 f1bf 7718 4539 247e ecbf
00000260: 3939 f3c3 98f9 e13f 15a8 77aa 185b e0bf
00000270: dede be0f 97ea eabf fa30 955c 661b e6bf
00000280: d702 d3da 5bd8 f0bf 63f8 4ecf 6229 f8bf
00000290: 1388 39db 6964 c6bf 6565 da63 4752 e03f
000002a0: 05bd c09c e9b4 d83f ca19 f73d d29e a5bf
000002b0: 4ceb 61b2 6104 d33f 8609 0a15 6e75 0140
000002c0: 2672 c16e 55ab cabf b90d a877 343b f6bf
000002d0: 9158 a712 9c97 df3f 8d68 1327 171a e23f
000002e0: 86f8 5e9b 78ed d13f 9643 a56a 6385 edbf
000002f0: 7854 e4f2 decb 0040 390a 13d7 5a8f e1bf
00000300: 08ea aeac dad9 fbbf 2bfc 5741 425b dfbf
00000310: 5313 da62 81a8 d6bf 2782 fc92 cc05 d93f
00000320: f6ec ce2b 1de3 e7bf 4641 d1d4 f6ba eb3f
00000330: 1193 0de4 a4f3 f9bf a469 098d da5d ee3f
00000340: 8dd1 9921 90d4 e0bf ebc8 a17f 021b 0040
00000350: 172b bd7d 81a8 f83f 615c d895 d45f de3f
00000360: cddd 5b4c bdfb f9bf 517f 2262 d7e3 f13f
00000370: bd2b 5600 c189 f1bf 0fea e127 c225 ecbf
00000380: a123 f9d8 a170 f0bf 5105 2379 21a9 d33f
00000390: dd42 e634 6c7d df3f 0f3a 3bcd 0f5b d23f
000003a0: 4358 0652 3589 fcbf 32ec 8f6f 763a efbf
000003b0: e930 803c 550f f43f b045 1da4 872a b83f
000003c0: c1bc e44f d8e9 0240 581a 172a d90d e4bf
000003d0: d5e2 ff5f 910f d5bf bad1 9801 5b3e d1bf
000003e0: ab0d 9727 a8a0 f9bf 85f0 0275 cce6 e93f
000003f0: e74b 57c2 8203 f03f 050c c2ce 8a8e c4bf
00000400: 530e 9307 3f1f debf a860 ba48 5ce0 f1bf
00000410: e60a 9da1 3a3e da3f f61f 81b3 0a61 c8bf
00000420: 7320 2d03 7db0 e5bf 6f29 d62b 5a8c d9bf
00000430: 899b 95f6 c742 d83f 822f ef97 c7d5 d3bf
00000440: 5eb2 e3ef 2369 dd3f 84e7 074d 69b4 d9bf
00000450: 88e7 33ce 2a78 edbf 01c7 2489 3987 e0bf
00000460: cb61 5b5d 9cbb e13f 2860 fc97 4349 f1bf
00000470: ec3c 12f3 3d5c e13f 35e1 8d01 1d4e dabf
00000480: 365b 0713 fd06 e03f 7bc2 f1f1 a829 f6bf
00000490: 1a53 35ae c2ea f4bf ebc0 89ec dc35 d5bf
000004a0: 7fb8 faf3 c94c f0bf ed13 e05f ad3a 0040
000004b0: 52f7 aa47 d999 e3bf c54a 6297 32ad 92bf
000004c0: ceeb 4221 360d fd3f 06ab 8669 9919 ce3f
000004d0: a87d 97f9 4b0f d73f 52a7 7807 950e f0bf
000004e0: 9562 91c0 6a84 ca3f 561c 095a 46f5 d2bf
000004f0: c60d 6949 3606 ef3f 362d eae8 4ed7 963f
-0.9812615105921257 -1.6198977762099522 0.8677842386942866 -0.5289329786353136 0.40685734318732136 0.5562435909550961 -0.27766542899790964 0.6777260524810421
-1.7312480066135822 0.21055611211409409 0.8025516556052973 -0.6187199664868078 -0.25008805790602157 0.3063097314152521 -1.138316461688055 0.07985207746771689
-0.0802436657286956 0.8028225458718249 -0.2137835060689154 0.38368466616746266 0.1935749423970907 0.4133841769132464 1.394632881265835 -0.3087589585803098
-0.3183076207739179 1.0013521764067261 -0.4711694308959641 -1.245689644289924 -0.5189506951494408 -0.3052101670470499 0.47564472474689223 -0.3396989134731173
0.08574532849220927 0.8554841935809454 -0.3912937917214523 0.4667345122009113 0.47473712945998137 -0.25266453895342234 -0.5452771936433524 -1.0967827569662867
0.3267299045510364 0.5182489212515456 0.027014406264410002 0.8610075926658594 1.7667599632430304 -1.3668135134947712 -1.0317952351693005 -1.023029678898972
-1.223642678973623 0.6748787731271428 -0.541037122934614 -0.7511472820616014 1.30327265891683 0.4514412331022589 1.0994682940729832 0.06999470966571313
-0.26330728997452774 -1.0412010106635206 -1.6172083525972167 -0.37741599217547683 -0.12521176727793407 -0.26476824837493934 -0.11543470469862917 0.6429985232317987
0.002511320402230753 -1.1099926581225374 0.4605715600597163 -0.6816439203665263 0.3191164815241893 -0.5549120674593657 -0.7409343875220441 1.1642539455673804
0.7469070206715656 1.1142412571477864 -1.0899166500783484 -0.8903981321862052 0.561718352046035 -0.5111201600495884 -0.8411364848643321 -0.6908447082765001
-1.0528219745466936 -1.5101039979922681 -0.17493937687237401 0.5100438070541428 0.38604202564143036 -0.042227335037341954 0.29714243335881885 2.182338871353923
-0.20835369022360445 -1.3894543336945004 0.49362851926469725 0.5656848681640142 0.280119086961243 -0.9225327570840018 2.099546334832265 -0.5487493706389791
-1.7406870599212443 -0.48994499570102573 -0.3540347543096704 0.39097895006310285 -0.7464738708144114 0.8665727764692199 -1.6219834240266133 0.9489567522644404
-0.5259476333872485 2.01318835937956 1.541139117400865 0.47459902413669935 -1.6239598257796957 1.1181253274334788 -1.0961313260220173 -0.879609182258095
-1.027498099853098 0.3071979220367967 0.49203019300425216 0.28680796663403013 -1.7834981159299026 -0.9758865527104545 1.2537433970747378 0.09439895397851816
2.364182113807687 -0.6266904661250221 -0.3290751874442724 -0.269430877265474 -1.601722864769594 0.8094236646061438 1.0008571235127819 -0.16060004325490254
-0.47065711726847786 -1.1172755089701614 0.41004815847933995 -0.19046148075926767 -0.6777939855610512 -0.3991914203731061 0.3790759952593637 -0.30992307507835204
0.4595422594709698 -0.4016364338163998 -0.9209188487431996 -0.5165069273554935 0.5541517089250702 -1.0803867279955828 0.5425100085721204 -0.4110176577737719
0.5008530971198073 -1.3851708842231847 -1.30731456804387 -0.3314125356619246 -1.0187472849316064 2.0286509981401566 -0.6125303649675777 -0.018238821496718644
1.8157254504464961 0.2351562276138212 0.3603086411876242 -1.0035600940559175 0.20716604616861348 -0.2962203864339633 0.9695083078190059 0.022305710760105422

network.2.bias f8 [2]
00000000: 41fd ce63 7a7d 8f3f a5e7 84d5 76f7 b3bf
0.015376049204745558 -0.07799475396032436
