src/models/5000_g_training.pt (torch, 130896 bytes, 4 tensors)

network.0.weight f8 [80, 198]
-0.17736959059502946 -1.3611255298030354 2.2077737879416315 0.4017609288626894 0.3987682672432327 0.3442158036761847 -0.27524180040785234 0.12370336405610782
-0.15316384528037044 1.389788332613569 0.23883681090203016 -0.369498187747395 -1.3827043277027462 0.9911983335164307 -0.07120893899702468 0.4733644319056515
0.26700165807379783 -1.6328936735584647 -2.5530258278155973 -1.5594096383782494 1.0030616695275072 0.0772762209036617 -0.2782790213845895 1.725993677892539
0.42401726437195686 0.3339423713733013 -3.0336863295228524 -0.312472477930508 0.09228745144021148 -0.14376401530494304 0.7854745289706568 -1.0860483115701556
0.14469049278270957 0.734117731974282 0.9478718316231605 -0.32364458749220676 -1.6154743309305404 0.1953492418844615 0.4809417112617675 0.443518795854589
0.2594099751944576 -0.5794288908054408 0.06817036221660853 0.5816192974007548 -2.331721082439885 -0.9898019536081157 -1.127709253076768 -0.3822529528101086
0.0021894673688147618 -1.3089257103387848 0.16882262576205884 -2.011128700193534 0.4153315717990573 -2.1280534506140696 1.53137854864748 0.2489244550701469
0.2513141576369053 2.0299246766354893 -0.46512726190602616 0.5375530544550664 0.5358714908379292 1.2797101428881772 -0.5828887971503438 -0.8681229108696895
-1.3188341279650722 0.725699529350237 -0.24407849978048404 0.13105150405921337 0.7701604439455709 -0.0027522526428696687 -0.042207516283140074 -0.6560154661933209
-0.30582591456952546 -0.8494786814734603 -0.6272036492121467 -1.6551080997524328 0.3705756147214463 -0.1304238260024922 0.25963449623176776 -1.4152036434189972
0.16067818563349526 -0.7915007676169875 -0.684402529483552 -0.6650065226269926 0.10692793554644285 0.7729220832120841 -1.8268170998844455 -0.4946770303151318
0.05839905447499272 -0.8226159713862001 2.248471279173202 0.49538795741622094 0.2598245891568298 0.65376059860053 0.7845224553843578 -0.6930087232372162
1.0416826798579026 -0.7150692349214389 -0.39774837802402724 0.4059145963373409 -1.0519686048502543 -0.05172067986255091 -1.853532591689879 0.0817734939194262
-1.5195502294951795 -2.6025413792714573 0.48922439507452425 0.7875105779640187 -1.864179567133214 0.3076400401219355 -0.29760555887608253 -1.683350014616524
-1.193562680457768 -1.633828408875447 -0.2599640775516606 -1.1750421066915415 0.4333674286970841 -0.0691832167789495 -0.24383686336124252 -0.6863789251934519
0.244217651860133 0.7374685277700681 1.268944139258592 1.3417524939331353 1.1713744592230562 0.5836757605684763 0.5923731436393008 0.6534112218313332
-0.21406269610305947 -0.5878667424613728 0.9827737057769677 0.18740223318016005 -0.6699695515557317 0.0029542437363029896 0.0869838513388627 1.2319292417509837
0.3085922905545993 -0.882118002068072 -0.07560929027193158 0.1361089736894321 -1.838652472547855 0.033408028533217844 0.7161948671099655 1.2196262665806292
-0.3296362762128008 -0.4197765288953927 0.17636581152820255 0.3838522266954404 1.3236324657773715 0.7729414119759751 -0.5091396256087398 0.1303644988432332
-1.475890642060174 1.3686813345034823 -0.5937442560975535 0.812496028059997 -0.6583950462865475 -2.6524889738215416 1.9489939739632536 -0.5770760566704914
0.7285300788453305 0.029765922859109107 1.0119936063537909 1.4653586897058015 -2.3395508051480585 -0.512915438801758 -0.3254960556064665 -0.9154636550443025
-0.4306099891422276 1.2357946929331456 -0.5788551643022477 1.3463120720997643 1.2917353473562543 -0.6336621970853058 1.4947005243128997 0.48575954809058536
0.356396724189153 -0.4921562709717767 -0.07247049516571742 -0.7649479639457997 1.0735519464152201 -1.4360934839367463 0.668714191267372 -0.4037405269269622
-1.485762427720358 -1.320260871144118 0.6767965478629028 0.3434061372955143 -0.8085971303688493 -0.47054336829411675 -1.0697101012891357 0.6994691763151245
0.9847118830799227 0.9617373063030082 1.5266426943979654 -1.5665505355188554 -0.017202992066990382 0.0394072831959378 0.33545889155598835 0.36418645846170616
1.0890890275544662 0.7826801333612866 1.085225305752275 0.3172346427907537 -1.2242765660687525 0.27341149580998525 -0.4301306298779146 1.2720065575934312
1.1409919662347983 0.42369725819651416 0.04363996999491059 -0.11854246697617796 0.11805159048815063 2.1635244564328935 0.3186585382021077 -0.05352305566370232
0.5580394961845283 0.8005233414148444 0.3217489337594607 0.10261065793298071 1.1083366988641719 -1.351038066650637 0.5124206998751626 -0.7012933132600557
-0.5376575631077564 0.5257177323431491 -0.26593782415623385 1.0693158315998461 -0.3626646111399809 -1.0218292648035403 -0.23098704660935546 0.2223442402357312
-1.061750047409744 0.24994512235447805 0.2848234486714907 1.0955911151629758 -0.8655759265085998 -0.01732404800300162 0.7761438523429934 -0.11103329594809982
-1.1537446410918781 -0.6058272694718444 -1.5537934168204035 0.4018635913983955 0.4768686819361656 -0.7478374634943542 -0.14520481119695128 -1.049343211344912
-0.15200015758363356 -1.630566640830562 -1.6720095157150678 -0.021967381468732384 0.2741651703472768 1.6130140175511878 -1.274514263588216 0.08631096341929742
00000000: 418d 74f7 0bb4 c6bf 4b13 4490 2bc7 f5bf
00000010: 1c67 c14d 85a9 0140 41a7 9178 73b6 d93f
00000020: 6581 9f56 6b85 d93f 758e e3b8 a107 d63f
00000030: d19b cfc8 8f9d d1bf c0b2 060f 06ab bf3f
00000040: 6553 3475 df9a c3bf 9c00 cfb0 923c f63f
00000050: 25dc f361 3492 ce3f e79a 13ba dba5 d7bf
00000060: dc55 b892 8e1f f6bf 4cb0 4991 e5b7 ef3f
00000070: 0cd2 2cc0 bf3a b2bf 0af6 8754 9a4b de3f
00000080: 32e7 591f 8e16 d13f 6676 dc1d 5520 fabf
00000090: 947d 22ce 986c 04c0 a46d 5e85 57f3 f8bf
000000a0: 6dde a764 8a0c f03f af29 8ad9 5fc8 b33f
000000b0: de9e 00d0 52cf d1bf 5f6b fa8b ab9d fb3f
000000c0: 28af da4e 1923 db3f 4e02 f3d2 4f5f d53f
000000d0: c3fb 9c56 fd44 08c0 ad24 6790 8cff d3bf
000000e0: 5353 c481 26a0 b73f 9ec6 09f8 db66 c2bf
000000f0: a4a3 b87a 9b22 e93f 0d1e c131 7460 f1bf
00000100: 429d 45d3 3785 c23f 94c8 4778 e47d e73f
00000110: fedf b34e f754 ee3f b19c b3c9 97b6 d4bf
00000120: 87fc ad9c fbd8 f9bf 8e98 9836 3401 c93f
00000130: 43b3 49be bfc7 de3f 28d5 d6a8 9c62 dc3f
00000140: f3d8 ed4b 2c9a d03f d6bd 0b75 ae8a e2bf
00000150: dfdc 46e4 9c73 b13f 32e1 a112 a09c e23f
00000160: c2c8 0362 5da7 02c0 c670 8825 75ac efbf
00000170: e9c7 95db 180b f2bf 349b c716 d576 d8bf
00000180: 0bbc d457 a5ef 613f 45c7 ec15 5cf1 f4bf
00000190: a787 3cd4 fa9b c53f 9706 dba4 ca16 00c0
000001a0: f3e2 77df ca94 da3f 1338 34e3 4006 01c0
000001b0: 3aca 03cb 8680 f83f 2bb7 d9ac c1dc cf3f
000001c0: 83a0 04fa 8715 d03f 42f1 1b26 493d 0040
000001d0: 7a52 9722 a5c4 ddbf 3afb 9776 a233 e13f
000001e0: d43e 00f8 db25 e13f ff06 c157 b179 f43f
000001f0: 6ae5 1e68 06a7 e2bf 18ff e2b2 a9c7 ebbf
00000200: b056 87d0 f119 f5bf ff04 2938 ee38 e73f
00000210: cd61 1bdb f63d cfbf c351 03b2 4bc6 c03f
00000220: 0269 ed83 27a5 e83f 9b32 ed62 e48b 66bf
00000230: f9b6 293c 399c a5bf 640e 9f25 14fe e4bf
00000240: 101b 56db a692 d3bf a07c 72ea ed2e ebbf
00000250: 6e89 2963 0d12 e4bf a280 7ca1 527b fabf
00000260: 081e 7bc8 82b7 d73f 1263 a659 bab1 c0bf
00000270: efa5 8e01 da9d d03f 5ca2 5a93 aca4 f6bf
00000280: 45fd 3c50 1a91 c43f 3d90 f56a f953 e9bf
00000290: 1bcf 2d22 a0e6 e5bf 62e8 49c2 bb47 e5bf
000002a0: 8765 3312 a15f bb3f 2311 b817 c7bb e83f
000002b0: a76f 3c91 a43a fdbf 0d4c d2d8 c9a8 dfbf
000002c0: d0c1 2c1a 7be6 ad3f 0bac c8ba de52 eabf
000002d0: 805a 9082 defc 0140 8fd5 fbb0 6fb4 df3f
000002e0: 9c03 4850 f7a0 d03f 97e2 cc58 9beb e43f
000002f0: 594f 1bd6 ce1a e93f 9cb0 44a1 202d e6bf
00000300: 0eca 2c75 bbaa f03f 54a0 4be0 d8e1 e6bf
00000310: 919d e99c b574 d9bf 173a 0f37 81fa d93f
00000320: 6a02 2408 ddd4 f0bf a0b5 1209 227b aabf
00000330: e90c 76ca 11a8 fdbf 7647 1092 1bef b43f
00000340: 3afa c4e6 1350 f8bf 40a9 f336 01d2 04c0
00000350: 9f07 50d6 734f df3f 2d81 3362 4933 e93f
00000360: 6356 2bf4 add3 fdbf c5e2 d0d9 5fb0 d33f
00000370: c6c1 9e2f f80b d3bf 48fc c76c 00ef fabf
00000380: e6ac 642e d518 f3bf 0955 f641 2924 fabf
00000390: 3607 ce5e 40a3 d0bf 1d9c baf3 f8cc f2bf
000003a0: 28f5 59bd 4abc db3f 1367 7fc5 fdb5 b1bf
000003b0: 930e d9dc 0b36 cfbf ffd2 8bef d0f6 e5bf
000003c0: 042f ec25 8642 cf3f 3641 1399 5799 e73f
000003d0: 7a10 a95e 984d f43f de4e 8c76 d177 f53f
000003e0: 30b9 1b25 f3bd f23f 4981 e3c9 78ad e23f
000003f0: 49b4 de85 b8f4 e23f f95b 93a6 bee8 e43f
00000400: 7332 870b 6866 cbbf 84e2 28ea cdcf e2bf
00000410: 22c9 b5d7 e172 ef3f 3d63 5adf cbfc c73f
00000420: c7ec 27fc 6370 e5bf 882f 6b87 7f33 683f
00000430: 8bd1 c7dc 9244 b63f a4e7 c46f fbb5 f33f
00000440: f5b3 eee0 f9bf d33f 1f0c 4388 4f3a ecbf
00000450: 2ce1 fd64 215b b3bf 1818 58d3 046c c13f
00000460: 59d7 e4da 1e6b fdbf d9b0 f26b db1a a13f
00000470: 9d9c 797f 11eb e63f efe6 04d5 9683 f33f
00000480: 5e30 7ac0 c218 d5bf abfb ce5f 9edd dabf
00000490: 61b4 52a8 2793 c63f 22d6 09ee 0891 d83f
000004a0: 9d00 873c 992d f53f e525 c5a0 efbb e83f
000004b0: 85ca 222f df4a e0bf b4a9 8bad c8af c03f
000004c0: 2aef 8181 3f9d f7bf d468 2566 1ee6 f53f
000004d0: 150f 44f4 f3ff e2bf 05b9 94ab f7ff e93f
000004e0: a8c5 f47c 9211 e5bf 5283 9c23 4c38 05c0
000004f0: 3b5f 244e 142f ff3f 798a d634 6877 e2bf
00000500: 3960 d94f 1e50 e73f ad4b dc44 f57a 9e3f
00000510: 61cf 3035 2031 f03f 1e22 13f4 1b72 f73f
00000520: f287 9b69 66b7 02c0 988b 68a3 cd69 e0bf
00000530: 23a2 7368 edd4 d4bf e2f0 626f 7a4b edbf
00000540: 1698 2c33 1d8f dbbf d77d eba7 d0c5 f33f
00000550: 4490 f943 fb85 e2bf 430e fe86 7e8a f53f
00000560: 8db7 ffae f2aa f43f 322c a6f1 f546 e4bf
00000570: acce d318 4bea f73f 1334 3137 af16 df3f
00000580: fccf b234 34cf d63f 0a16 1604 7d7f dfbf
00000590: 0564 a926 6d8d b2bf 763f 0927 747a e8bf
000005a0: 7891 46ce 442d f13f c81c 3829 3dfa f6bf
000005b0: 96a9 bb4d 1b66 e53f ab26 ce81 e2d6 d9bf
000005c0: b8f3 cad2 aec5 f7bf 100a fcdc c91f f5bf
000005d0: 5ebd e33b 51a8 e53f ce83 3bbc 5dfa d53f
000005e0: 645b d216 07e0 e9bf 0911 8bee 611d debf
000005f0: 8fcd d356 881d f1bf 2dac 9a2e 0d62 e63f
00000600: 6ff2 b97e c282 ef3f 0944 bd50 8dc6 ee3f
00000610: 87dd d1e3 206d f83f 385b 594b 9710 f9bf
00000620: dfc6 4841 a99d 91bf a3fd 1901 312d a43f
00000630: 13aa 1892 2878 d53f 424d 2fb8 d44e d73f
00000640: 4676 bc9d e86c f13f 2980 0035 b70b e93f
00000650: 42f6 cf35 155d f13f 2b73 fc87 924d d43f
00000660: 4064 4806 a396 f3bf 4ead 36ee 927f d13f
00000670: 7458 159f 4287 dbbf cc94 528c 235a f43f
00000680: 97a2 bfca 8041 f23f 28f8 d61a db1d db3f
00000690: 5f66 da67 fa57 a63f 668f d992 cc58 bebf
000006a0: 192c 6308 a138 be3f bbcd 03e9 e54e 0140
000006b0: 7dd4 0ac8 e664 d43f 83af 50bb 5f67 abbf
000006c0: caa4 3fa5 75db e13f fbf6 6120 e39d e93f
000006d0: a643 01d7 8897 d43f d60e 0b2c b144 ba3f
000006e0: 6240 2943 bfbb f13f 1ca6 7e17 da9d f5bf
000006f0: 6e3b 7818 c065 e03f 9f5f abac fe70 e6bf
00000700: f9d5 3fa2 7d34 e1bf 59ea 6afe add2 e03f
00000710: 9d4e 6114 2005 d1bf e70f ddea ea1b f13f
00000720: 4fd1 10a1 e535 d7bf b4d4 a6a4 6959 f0bf
00000730: c54f 7ec9 fb90 cdbf 791a 22ac c675 cc3f
00000740: ba6b 229e edfc f0bf 6352 27a7 33fe cf3f
00000750: 2464 4b21 8c3a d23f 449c 968c 8a87 f13f
00000760: 14e6 1149 ccb2 ebbf accc 6d2e 65bd 91bf
00000770: 5dbf d9a1 2bd6 e83f c63a dd96 ad6c bcbf
00000780: 49cc d6f0 bc75 f2bf 7702 adde ef62 e3bf
00000790: 5bbd 5f7c 56dc f8bf fd96 a011 22b8 d93f
000007a0: dcc1 5938 0485 de3f add1 0dd5 48ee e7bf
000007b0: 8808 a83d 1296 c2bf a118 701b 1cca f0bf
000007c0: a67e e7bc bd74 c3bf b00d c50b cd16 fabf
000007d0: 5f8d c90c 8dc0 fabf 2da6 f203 9e7e 96bf
000007e0: 3101 1612 ec8b d13f 64f3 55c9 e7ce f93f
000007f0: c059 8611 6964 f4bf 0611 2cad 7918 b63f

network.0.bias f8 [80]
0.018197381072031484 -0.09778035536186784 -0.05946106420270386 0.023418977472606798 0.042444090313047696 -0.043183165414185994 0.01514649534190342 -0.045983776714488375
-0.019182902695980355 0.06816574430054308 0.03451999110764353 0.004409905545909608 -0.10947290226037473 -0.04145150851798428 0.045215115801900456 -0.06383129994408732
-0.16619554019494304 0.03357782225368545 0.08451462617222774 0.02963669681098528 -0.025315916311878392 0.0034091766033787544 0.03436119740142252 -0.019288076901669258
-0.19067669356006886 0.030896908295386147 -0.13031983271626188 -0.0006061800570104492 -0.08163428999365847 0.07260587643911273 -0.0315527832536777 -0.13679393035951268
-0.0882238286645438 0.008772380948701964 -0.06169403677083968 -0.032415024513592655 -0.06989924601417961 0.11642167431718771 0.07761955998026472 -0.006370593139316508
-0.010192400997828477 -0.0643834960607156 0.05365845141155095 0.06068980565545215 0.0049028101880384 0.009577187086971105 0.015678669817874562 0.018645598597011304
-0.22402821965578038 0.0278117138141877 0.11083847771978027 -0.09600902960683774 -0.01618766369378837 0.004401566479501462 -0.11113800229314912 0.06005185480631258
0.05141279127299843 -0.013219164056114441 -0.03395110848349902 0.01728591797504321 0.007938207818397802 0.022897994967454073 -0.050224079566400646 0.00803774304115461
-0.06692174306783273 0.09273415609753442 0.05044411796910784 0.012348708190857037 0.013302035979603765 -0.09278227761739144 -0.1505011875401175 0.1816044937175961
0.04314653224727165 -0.02375311756290166 0.08400136849773251 0.024729479608087843 0.20788155717292717 -0.11076871193900559 0.01871788004108746 -0.04292069881824955
00000000: fa13 4f92 55a2 923f 6b71 7824 2208 b9bf
00000010: c89d 453c ae71 aebf 8105 67f9 24fb 973f
00000020: 2924 9b57 3bbb a53f d124 6296 1a1c a6bf
00000030: 99d2 2331 2005 8f3f 3e45 4582 2f8b a7bf
00000040: 67e7 e2ce aea4 93bf e573 7a6a 4f73 b13f
00000050: 0828 bbb1 9aac a13f 98f1 9101 1f10 723f
00000060: e6aa 0187 6a06 bcbf 5ec2 e8d2 2139 a5bf
00000070: 17db 4e87 6f26 a73f e094 b881 3f57 b0bf
00000080: 3e6d f03c e545 c5bf 51a5 e6c0 1c31 a13f
00000090: 9a81 7123 c0a2 b53f 6b33 420e 1559 9e3f
000000a0: 8cdb 8262 6aec 99bf 8bd1 91c0 8fed 6b3f
000000b0: 5157 2e76 ca97 a13f c94a fbed 40c0 93bf
000000c0: a396 7909 1868 c8bf 5c6c b46a 70a3 9f3f
000000d0: 33ad c4fd 51ae c0bf 7bbd 9ac2 01dd 43bf
000000e0: f543 c11d fce5 b4bf 06ac cd78 4c96 b23f
000000f0: 9d3a 58b8 af27 a0bf 77bb 97a8 7682 c1bf
00000100: 5f95 d73a d695 b6bf 1a07 430a 41f7 813f
00000110: e8f4 935c 5c96 afbf acad 5ebc b398 a0bf
00000120: 9f5d a5bf eae4 b1bf fde5 bc93 cfcd bd3f
00000130: 6128 a51f e0de b33f dd22 0813 0d18 7abf
00000140: 808b a0e7 c0df 84bf 89a0 fbd1 6f7b b0bf
00000150: 57e8 eedb 1e79 ab3f 4445 fbf4 bb12 af3f
00000160: 026e a816 f814 743f 4c16 9c4a 349d 833f
00000170: 3b41 73b8 110e 903f fd07 c1f0 d417 933f
00000180: 41be 66ea f4ac ccbf a74f 1c85 ac7a 9c3f
00000190: b7e3 f114 e95f bc3f 5635 483a 0c94 b8bf
000001a0: 0d64 a7b8 7f93 90bf 4041 4a81 6007 723f
000001b0: fb1c 3145 8a73 bcbf 0f1d eae0 1dbf ae3f
000001c0: 1a2a 3a02 c752 aa3f 3a69 692a a612 8bbf
000001d0: affb 3229 0a62 a1bf 645e 8951 66b3 913f
000001e0: f33e c037 e841 803f 6ae3 1d6e 9272 973f
000001f0: 8335 6b76 f8b6 a9bf d999 f69b 1776 803f
00000200: b91e de89 c821 b1bf d73b a9f7 6cbd b73f
00000210: 6de0 e7b9 cfd3 a93f 5fe1 9e8e 474a 893f
00000220: 395a 050c 193e 8b3f e0dc 0350 94c0 b7bf
00000230: 523a 3f77 9f43 c3bf 6b6f a9e8 d03e c73f
00000240: b62c e061 4d17 a63f e05c 71bc bc52 98bf
00000250: 7e5a 841a 1d81 b53f acc4 a748 af52 993f
00000260: 4ae8 bfe4 dc9b ca3f f6b4 329b 565b bcbf
00000270: c8f7 81aa c72a 933f bfdf 7dab b3f9 a5bf

network.2.weight f8 [2, 80]
-0.07159727348194744 -0.7447449044687982 0.011271799586004005 0.10264573768013399 0.2614826861656338 -1.1504468329219752 0.8409131804194692 0.0638964770930551
0.7859927523908071 0.6432661121359549 -0.9590371396594468 -1.2577854893068787 -0.8060779705848886 0.07990782976228487 -0.20099397755504447 0.44315935842189047
2.05001897924263 0.3245262865137159 -0.0969642915809755 1.0128046042220562 -0.7776755941614233 0.4302619658738304 -1.0013719186044983 0.7623466009930632
0.470816096264951 1.0720730941616885 0.5151479675843522 0.9762676588418353 -0.42396350615529127 -0.04851918818248448 -0.16779328705700527 -0.2696588391678321
0.24628325776004645 -0.5489865286495206 -0.40111485488612614 -0.6819266988236834 0.1484398931409468 -0.740110083051957 -2.529614891943165 -0.11847544220547436
-1.3595052921977357 0.6088270065761259 -1.1607039143142155 0.11163127672978715 0.5125497416142221 -0.45731114653882504 0.9137881988987 -0.47086980100669745
0.5210097773585421 0.1585785842539038 0.957204634803243 -0.019988880699356282 0.1384548533235351 -0.8737021219995641 1.1431789317265613 0.5914316201394453
-0.11912283802215969 0.07071779593247395 0.46818919940219955 0.9212771427088488 -0.3880706269759444 0.37734558895946424 -0.823625502778013 -0.32439313667466463
0.9705254410076947 1.0227112127253422 -0.3042260109075375 1.3560393817777792 0.2230656184765998 -0.4178542387435546 0.878124233667175 -0.19129477361147618
-0.5489580612277277 -1.140143683028956 -1.0630518310521535 -1.0992197492282125 0.322641976187361 0.3479970855748632 -0.6832944714737855 -0.9301011614939448
0.8608308802097293 -0.7989202858645285 -0.12344466461191023 -0.1626146470681421 -1.7390165824117803 -0.7021222301811839 -0.3127930474665315 1.3596619718463805
-0.185504563190106 -0.8792939246696982 -0.865541692756136 0.228336311446068 1.7886635286467183 0.7324953337490798 1.4612917988999334 -0.48159202464181605
-2.0442814070965607 -0.3937787722596636 -0.4524900606134321 0.09577063915659861 0.1322229026361255 0.634070653682182 -0.40182824271764783 -0.12223882622315106
1.300543731949749 0.49791821176508466 0.618218668147622 0.5299513453560311 0.07144933366047411 -1.367172756921495 -1.2836782462997565 0.5847628710087296
-0.4842432402930816 0.3783812211500536 1.8290792593003296 -1.1999947298286502 0.08639142792385174 -0.7286165412372039 0.42115715252665104 0.5742293337907848
-0.7623681357980194 0.33501373798454515 0.4987920999359388 -0.6371529747855498 0.67410664318892 0.054152161307928506 0.3408583734046542 -0.19523478413022274
-1.8485772796201378 -1.3990710240821522 -1.0409665978436438 -1.4058827774547467 0.08528330718533596 -1.930674661967916 -1.6447942916405913 -0.41066083394937913
-0.1133260175083956 -0.07586501631298759 -0.36766627234617943 0.9232498448802776 -0.9654432888494711 0.344471450558634 0.5711670421683894 -0.1703656357286844
-0.4191803528492483 -0.8571054661448501 0.9235351099198175 -0.4274708402624364 0.6455430985939713 0.7436131439295224 -0.3565187956683193 -0.8284785536665535
-0.8710499869491912 -0.13145717018356654 0.10039200128555126 -0.20324627421748495 -1.9853324758879176 -0.5612634850409306 0.7191885399508665 -0.6060507827925785
00000000: a075 16ec 3254 b2bf d6cb 1144 f3d4 e7bf
00000010: 462d b654 ab15 873f d2f3 68b6 fd46 ba3f
00000020: e34d 63e0 21bc d03f 8ffc 32f0 3a68 f2bf
00000030: b8a9 15c2 c2e8 ea3f a6bc 71ff 845b b03f
00000040: 5b2b cd45 da26 e93f c4f7 47d0 a295 e43f
00000050: 1e93 cfa7 6eb0 eebf 6c4d 5fad e31f f4bf
00000060: 4c05 3607 64cb e9bf 33fa 85eb d674 b43f
00000070: 215c 25b0 2bba c9bf b8a7 d511 b95c dc3f
00000080: 1136 c059 7066 0040 f732 d1e6 09c5 d43f
00000090: 5658 38dd a6d2 b8bf 87f3 c599 7234 f03f
000000a0: 0643 7aed b7e2 e8bf 5f02 097c 6989 db3f
000000b0: 21a0 988f 9e05 f0bf 476c efb2 2465 e83f
000000c0: c4da f8d5 d921 de3f 2389 e51d 3627 f13f
000000d0: 6a05 2c97 177c e03f 08c8 5bac 953d ef3f
000000e0: 2b9b 68d4 3722 dbbf 82c9 f1cc 81d7 a8bf
000000f0: 7df7 321c 407a c5bf 0567 d325 1742 d1bf
00000100: c8dc d0b4 3586 cf3f f6d0 4f32 4c91 e1bf
00000110: a13e eba3 ddab d9bf 5af1 b6f0 57d2 e5bf
00000120: 2226 3b13 1400 c33f 69bc 4457 fbae e7bf
00000130: b8f6 82bb a63c 04c0 91d2 a615 6854 bebf
00000140: b4a6 0b9f 88c0 f5bf 2e50 45c6 827b e33f
00000150: 9119 8544 3e92 f2bf a2e1 c30a de93 bc3f
00000160: 7dcd 39b7 ce66 e03f cbc0 9ef8 9544 ddbf
00000170: 7cb3 b7bf c03d ed3f d9db ff16 bb22 debf
00000180: 77d6 54b2 1cac e03f 30b6 9b94 4d4c c43f
00000190: dae7 419d 6ba1 ee3f 90ad 8c13 f777 94bf
000001a0: ab9f 7f7d e3b8 c13f c1e2 0d27 5ef5 ebbf
000001b0: 67de d3fd 754a f23f fd36 4a01 02ed e23f
000001c0: a50a 8395 d57e bebf 0772 c6bc 8f1a b23f
000001d0: b376 f1d4 cff6 dd3f 1d94 cf33 1a7b ed3f
000001e0: e897 d92e 26d6 d8bf 7eba f71c 6e26 d83f
000001f0: f2a8 d2de 235b eabf 7821 446e dbc2 d4bf
00000200: 800c a25e 8b0e ef3f 8786 be6e 065d f03f
00000210: b92f dc5f 7078 d3bf 8c2d cd59 56b2 f53f
00000220: 8108 1c08 6a8d cc3f bb81 79b4 1fbe dabf
00000230: 579e 2dfe 9719 ec3f 3c4c 47de 587c c8bf
00000240: 3128 fb7e 1091 e1bf 0f9b 754d 073e f2bf
00000250: 9226 05a3 4202 f1bf 04d7 a072 6796 f1bf
00000260: 5ea8 0288 2aa6 d43f 326e 6991 9545 d63f
00000270: 798f 105e 8cdd e5bf c7d1 d282 63c3 edbf
00000280: e267 bc33 ed8b eb3f 99c5 7c46 c190 e9bf
00000290: 2cb4 5fcd 119a bfbf 6c0e 8187 8ed0 c4bf
000002a0: 8790 4a0d 03d3 fbbf 5387 0d0a c977 e6bf
000002b0: 453c 5221 cd04 d4bf 091f 6be9 2cc1 f53f
000002c0: c083 1410 9dbe c7bf 14e4 4003 2d23 ecbf
000002d0: 65c9 f67d 84b2 ebbf 8b37 13cf 1f3a cd3f
000002e0: ad5e f1a5 5d9e fc3f ce98 dd0d 9a70 e73f
000002f0: f602 6382 7361 f73f 3677 f65a 67d2 debf
00000300: 9c67 da35 b05a 00c0 e2b6 2de1 ab33 d9bf
00000310: 4862 06df 98f5 dcbf 3c38 18b3 6c84 b83f
00000320: 615b 4d19 aeec c03f d362 1d8a 4e4a e43f
00000330: 7036 45ce 8db7 d9bf 5f0b ee30 0b4b bfbf
00000340: 14df bbf1 06cf f43f 2c49 e758 e4dd df3f
00000350: 1610 2f84 72c8 e33f b5cf 1886 5cf5 e03f
00000360: d789 64e7 804a b23f 135c 6f8a f0df f5bf
00000370: fb1a 6733 f289 f4bf d0b8 dc9f 60b6 e23f
00000380: ef8a 175c d7fd debf 3ba4 90de 6537 d83f
00000390: 03ca 079d e843 fd3f 54c8 7fac 2d33 f3bf
000003a0: 7c72 96a5 bf1d b63f 9607 fea2 d350 e7bf
000003b0: 5305 2521 3df4 da3f 1521 2132 1660 e23f
000003c0: b87a 58dc 5165 e8bf 6aad 1676 dd70 d53f
000003d0: e597 2eb3 35ec df3f fa18 a8a2 8e63 e4bf
000003e0: 7868 5018 4892 e53f ba89 a603 d5b9 ab3f
000003f0: c8ce 95a3 9fd0 d53f 33c2 7012 74fd c8bf
00000400: e28d 01c5 c593 fdbf d76c 534c 9862 f6bf
00000410: 2778 5f97 cca7 f0bf 33d8 72f0 7e7e f6bf
00000420: 2978 4177 20d5 b53f 8de3 451d 0be4 febf
00000430: b6e6 b3d1 1351 fabf 04e2 e360 4448 dabf
00000440: 0c07 fc12 ef02 bdbf b88b f9c3 e36b b3bf
00000450: a46b e41d d887 d7bf 1d88 3942 438b ed3f
00000460: 8009 f852 e9e4 eebf 5985 a3fb d10b d63f
00000470: 3652 d51a 0047 e23f c691 e888 8ace c5bf
00000480: af3f a7d4 d9d3 dabf 3414 4a71 686d ebbf
00000490: 3807 ba80 998d ed3f 76ee baa7 ae5b dbbf
000004a0: d9d3 1300 4aa8 e43f 80b2 c1ca adcb e73f
000004b0: d380 f335 34d1 d6bf 64ed ad74 e582 eabf
000004c0: 9a18 e438 a4df ebbf 11ae 61ab 96d3 c0bf
000004d0: b02a 4d4a 4ab3 b93f 1723 6652 f903 cabf
000004e0: 4a01 7afc ebc3 ffbf b212 16d7 def5 e1bf
000004f0: 1be7 57af 9703 e73f fce5 799c c464 e3bf

network.2.bias f8 [2]
-0.017371304932013065 -0.1987866418181876
00000000: 5390 498a c8c9 91bf efd1 be36 d771 c9bf
