src/models/50000_g_training.pt (torch, 130904 bytes, 4 tensors)

network.0.weight f8 [80, 198]
0	0xbffcaef89999011b	-1.7927175521763903
1	0xbfe42208bd122ac7	-0.6291545574943819
2	0x3fd24a81b0bf8a9e	0.28579752216880105
3	0x3fe5c546642b06e2	0.6803314167411509
4	0xbfe6f020f1cffbc3	-0.7168125841998222
5	0x3fd49eb3f769c451	0.3221864620346127
6	0xbfb8fa5798388c8d	-0.09756991831140933
7	0x3fc870529fdaef71	0.19092781835012887
8	0x40025b8eb4464c26	2.294705780406292
9	0x3fe000a73933f3f5	0.5000797383542009
10	0x3fd82072999a865a	0.3769804477725295
11	0xbfaa27d9bcaab616	-0.05108528545438788
12	0x3ff69a744b436ea2	1.4127085628487426
13	0xbfce7f2fb3f6cbcb	-0.23825641906077374
14	0xbfd2bf6301c3a982	-0.29293131992621835
15	0x3fd2bea292e62b14	0.29288544030775765
16	0x3f94d64522c12e23	0.020348625417950694
17	0xbfe0c5f406ff0407	-0.5241642128604561
18	0xbfea68b231b2e301	-0.8252802820853448
19	0x3fb09983b6a61541	0.06484244546125685
20	0xbfe10995c821fb6a	-0.5324200543253543
21	0x3fea28735b6fea7b	0.8174378190881976
22	0xbff2b99ad17658fc	-1.1703136617775831
23	0xbff1e3c172602ebf	-1.1181044071008015
24	0xbfcf1bcefb4c5b98	-0.24303614874289958
25	0x3fedade378909321	0.9274766306667496
26	0x3feaaecaeeb4789e	0.8338370001036031
27	0xbfeb4fe3708c4d5f	-0.8535020063595019
28	0x3fd56ef254dbd98c	0.33489664351454773
29	0x3fb5fedee6b3bffa	0.08592026836754477
30	0xbffb77cb6153a83c	-1.7167466928317614
31	0xbfe04d2c38dc778a	-0.5094205008096975
32	0xbff593afe3811db8	-1.3485564124001552
33	0xbff6b4182fbbd1b9	-1.4189683785053673
34	0x3ffafafba6c7c1fa	1.686275149808465
35	0x3fe3d1a8b866a6cb	0.6193431474286738
36	0xbfcc1d0254f0b496	-0.21963528773759283
37	0x3fe89a8ab2c837bb	0.7688649646604441
38	0xbfd85d88ee082588	-0.38070891614241775
39	0xbff1b82bfe37e174	-1.1074638300325121
40	0xbfb012a00718609c	-0.06278419659827467
41	0xbfe618ed7a7ef787	-0.6905429260730082
42	0x3fe570035a2ee72d	0.6699234734908025
43	0xbfcb367b0249da5b	-0.21260011302702506
44	0xbfd7ec0655c361be	-0.3737808072596883
45	0xbff05328427323b8	-1.0203020663923166
46	0xbff166677872ae49	-1.087501020908251
47	0x3fe4c851b7b1f3ef	0.6494530284686543
48	0x3fcc4a6d6f6edeaa	0.22102134648388488
49	0x3fc4bb64753370ba	0.16196876261427012
50	0xbfd7691eb7108fe4	-0.36579101445590667
51	0xbfc9548140b2778d	-0.197891384687804
52	0x3fa28794e62595b1	0.036190655798047706
53	0xbfef413c63f29244	-0.9767133667088008
54	0xbfeaf4c5b224b195	-0.8423794249879842
55	0xbfe02c2546f9bc35	-0.5053888689270766
56	0x3fe6bee2a64f0600	0.7108014343468199
57	0x3ff84c7050d1a085	1.5186618000971361
58	0xbff5018546608a8c	-1.3128712414842623
59	0xbff0e3fe7889badb	-1.055662604190437
60	0x3ff9865f0e9e3758	1.5953054972664713
61	0x3fb89d8698621a91	0.0961536523846951
62	0x3fe74fa50433933e	0.7284722406444428
63	0xbfea2d7fdf1a7f1b	-0.8180541379442475
64	0xbfedb7efc2f36fa0	-0.9287031943926998
65	0xbfe6ee23ae4b5543	-0.7165697483239132
66	0xbff1f4a8edeca2be	-1.1222314161224598
67	0x3fef3050586d95e7	0.9746476866827692
68	0xbfd42c348656a42f	-0.31519806975353765
69	0xbfb3e38b428dd8db	-0.07769079565864294
70	0x3fe339f664dfc25c	0.6008254976459955
71	0x3fe0f6a40a1c387c	0.530107517000729
72	0xbfe45454192e4b33	-0.6352940074742491
73	0x3fc5860a143514b9	0.16815305697142494
74	0x400bc5a3421d2bdb	3.4715027966644647
75	0x3ffa868f88542724	1.6578517270413125
76	0x3fec04ef2c1f6509	0.8756023275156234
77	0xbff70f50acf831b4	-1.441239047681944
78	0xbfe755c0eb4945f0	-0.7292179675516177
79	0xbfffdb1b80939bb9	-1.9909930250666845
80	0xbfa86acc452fc420	-0.04768980354845831
81	0x3fe8365584151f51	0.7566325740562921
82	0xbff029e181167f67	-1.010224823236024
83	0xbff7e14b0f49ccb7	-1.4925032231520114
84	0x3fdf7ee63a9570a7	0.4921203205210624
85	0x3fda62f2c572573f	0.4122893264951592
86	0x3fe43dd94cbc2d07	0.6325499056560212
87	0xbfe5039047476658	-0.6566850082555886
88	0x3fe79fbc8dbd7e26	0.7382490890849496
89	0x3ff27821fbc1a2bf	1.154329284118077
90	0xbff5e93bb9bbb3fe	-1.3694417243198127
91	0xbfe0f103cc1310f2	-0.5294207559423099
92	0xbff72129a056fe09	-1.4455963385843253
93	0x3fbf45ab9bb07869	0.12215683508881771
94	0xbffb660912d05f8a	-1.7124109969063022
95	0x3fe50214fb05dccf	0.6565041449347521
96	0xbff5ecdb4f291c1c	-1.370326337071453
97	0x3ff57e4ada3027ce	1.3433331034634537
98	0xbfdc0dff7de3da8c	-0.43835437101316965
99	0x3fe2cc65a3bff010	0.5874508093106687
100	0xbfd2cb705a59ca98	-0.29366692374530023
101	0x3ff8d96191dba5e7	1.5530715653970846
102	0xbfeb566e37f20470	-0.8543006031687934
103	0xbff49cc107fdbcb1	-1.288270026412459
104	0xbfd8e73dbfd0468c	-0.38911384326738907
105	0x3fee3c20b7ace958	0.9448398196612215
106	0xbfd4815696dff2c5	-0.32039417966715816
107	0x3ff5bf4d46146d15	1.359204553364923
108	0xbfd5723b3ece3abc	-0.3350971330009249
109	0xbfbb14c5e9daf738	-0.10578572234495887
110	0x3fd1097633799d5d	0.266202497738467
111	0x3ff4424873303f0f	1.266182374911242
112	0x3fe221ca08d5eebb	0.5666246578761823
113	0xbff0ac6e295b4a5d	-1.0420972457401583
114	0x3fe7b1b2abac1c92	0.7404416420912574
115	0xbff529dac4163864	-1.3227183971062226
116	0x3fa449c5b229805c	0.039625337599091565
117	0x3fc6ed0c8d5e0cbc	0.1791091623564166
118	0xbff1f33120bd4869	-1.1218730238802215
119	0xbfe3105e01b6284d	-0.595747950880886
120	0xbfdb6e3e1cc67763	-0.4286036759384528
121	0xbffd9b2c12851fe3	-1.8503838275373645
122	0xbfe6856c9709aab0	-0.7037871313053383
123	0x3fed3c5b07444dee	0.9136176244668925
124	0xbff38fa4fd63710a	-1.2225694559084013
125	0xbff3c291fc98f8d9	-1.2350025050250706
126	0xbfd6ec35ca2c863a	-0.358167121348831
127	0x40032c1d93d7e048	2.3965407896285207
128	0xbffd7411ab2c8070	-1.840837162635605
129	0x3ff11ffe1f0b5fca	1.0703107083008825
130	0x3fb49eedcedb33f9	0.08055006313516334
131	0xbff8956e3d9f2a9b	-1.5364820868586893
132	0x3fd53b0b8b9758ae	0.331728826827553
133	0xbfd41af4ed85e084	-0.3141453094062927
134	0x3fe27a7ab28792e6	0.5774510847955667
135	0x3fb4603a70a7231f	0.07959332704843945
136	0x3fc009d377f2ef57	0.12529986721880945
137	0xbfca4934078beae0	-0.20535898560031907
138	0x3fda47b8bc051cb7	0.41062754021954667
139	0x3fdf08d3a425931d	0.4849137404437885
140	0xbffc660b299e9251	-1.7749129892119024
141	0xbfd64743f1d7a71f	-0.34809969537183066
142	0xbfc5c4d091a30500	-0.17006880866214402
143	0xbfc8f1a61ca55adc	-0.19487453840948532
144	0x3fb7c4da1463c76d	0.09284747121617239
145	0xbfc21abed78e6561	-0.14144120717245826
146	0x3ff5431caf30c516	1.3288847773913566
147	0xbfac0bf03e28c0d2	-0.05477858313349916
148	0xbfe7356bd13c87a1	-0.7252711378716762
149	0xbfd330fd808447e5	-0.29986512709103713
150	0xbfa98eafaa0d9d45	-0.04991673422665114
151	0xbfe7b94ba0ce32f6	-0.7413690701228848
152	0xbfb9be389085dde7	-0.10055879143134626
153	0xbfe9b56b12547b68	-0.8033957822807283
154	0xbffc05e163b35405	-1.7514356512594997
155	0xbfa2a06447abd064	-0.03637994170085859
156	0x3fe0393f8241e477	0.5069882911767668
157	0x3f8a495aa260b6f2	0.01283522422826475
158	0xbfdcbeaae8476162	-0.44913742717246496
159	0xbff885f94feb9e2a	-1.5327084657564094
160	0x3ff33c42cdea6e09	1.202212147100797
161	0xbffff58ef7bb7b87	-1.9974507977528633
162	0xbfc9db5d73f9f205	-0.20200699007899928
163	0xbff8a37cc1cf9f14	-1.539913899492551
164	0xc0045c2f0871e254	-2.5450115833048503
165	0x3fe35b70af5fccf5	0.6049121308591611
166	0x3ff855a87328546d	1.5209125994054162
167	0x3fe93f63b2fd8bcf	0.7889879699617895
168	0xbfd5b1069927a5ab	-0.338929795804314
169	0x3ffb6cbc2672546c	1.7140466214962329
170	0xbffd09692651a8fc	-1.8147975441775648
171	0x3fdcbdf98f8092e9	0.44909514440432347
172	0xc0021bed6e64922f	-2.2636364578668444
173	0xbfcd5c91200b8d50	-0.22938741745665903
174	0xbff3beed2057b317	-1.2341128600484745
175	0x3fdcdc64dbcfba71	0.4509517809482651
176	0x3fe10f6b9d16b1d1	0.5331323688638411
177	0xbf9fe11b33d162e8	-0.03113214973231751
178	0x3ff1adf307b327e7	1.1049680996679798
179	0xbff5359920e0077e	-1.3255854877647546
180	0xbfc7de52662cb0f8	-0.18647222508423744
181	0x3ffe3c5cbc73da13	1.8897368775775518
182	0x3ff1e61a1d6fd779	1.118677248943156
183	0xc0051bd7b385dadc	-2.6385950112556724
184	0xbff9d73f10cff996	-1.6150503784880121
185	0xbfed478cfa9edc4d	-0.9149842162067984
186	0xbff90471777f1788	-1.5635847728567303
187	0xbfede55a6d3eed92	-0.9342472203929211
188	0xc0003c35b59fc3b4	-2.029399317682385
189	0x3f83d02ca930c3fd	0.009674405015262616
190	0x3fdc2ebf364750bb	0.44035320568697117
191	0xbfd98eac7a5bc6b7	-0.39933311413833955
192	0x3fc9bd259b5ba275	0.20108480535352027
193	0xbfd9d0a47708ca2e	-0.403359524006336
194	0x3fe4e5ad0ae8fd9f	0.6530366147125511
195	0xc0035afabf9e1a4b	-2.4194235773204915
196	0x3fb19849d1ac16d9	0.06872998589468739
197	0xbfc84c45c44aa09f	-0.1898276527838378
198	0xbfcc030c8bf7818b	-0.21884304842297939
199	0xbfd133db4576f00c	-0.26879007133152366
200	0x3fe9f6565933bd1d	0.8113204710224725
201	0xbfc6576ec13c0ad6	-0.1745432323005704
202	0xbfebd293c9924c4a	-0.8694552361433889
203	0x3ff1a472f1d89527	1.1026486823187243
204	0x3fd90968639a56e2	0.39119920470089486
205	0x3fe7b39dbc27ebb3	0.7406757998390873
206	0x3fd4649d2907d37b	0.3186409855546157
207	0xc0014662a5f03b1b	-2.159367844003453
208	0xbfdbadedfa090642	-0.43249082009797146
209	0x3fe3cf0404221e1b	0.6190204697349516
210	0x3fd2b84d08d2637d	0.2924988351965608
211	0x3fe7ead5bece2e87	0.7474163748424453
212	0x3ff83205f2d5a8e7	1.5122127042509932
213	0x3fbf5e7a695a8896	0.12253537246809496
214	0xbfd2f2c41e2db9a7	-0.29606726596002847
215	0xbff6632ebf582805	-1.399214503706845
216	0xbfcaf85100d9004d	-0.21070301572217645
217	0xbfd7e21b65943e84	-0.37317547721702504
218	0x3fd9ca1d63096d80	0.40296110793652673
219	0xbfcd47a53fe2c545	-0.22874894732880527
220	0xbfd32910ae11bad3	-0.2993814182181442
221	0xbfad7ee105011121	-0.057608634816036515
222	0x3fb7e2eda2d8f129	0.09330640054480867
223	0xc00816c07f697583	-3.0111093477304975
224	0xbfe42423679336cc	-0.6294114134741107
225	0xbff1de24b0e55604	-1.1167342100137612
226	0x3fe28fd49dce9a22	0.5800574381035555
227	0xbfe2d0aac0669445	-0.5879720456911249
228	0x3fd8742d782bbc79	0.38209091887887997
229	0xbfdccbabf37d7018	-0.4499311330635023
230	0xbfe36a789a214a1b	-0.6067469606735502
231	0xbfdcf387b790e398	-0.4523639004360631
232	0xbfcd18547c3aea07	-0.22730499330448614
233	0x3fb44227a02e7ac2	0.0791344419544471
234	0xbfeda521be6ee26a	-0.9264076918980895
235	0x3fb6237acb67985a	0.08647887674268998
236	0xbfc6908c26d1ee49	-0.17628623862752793
237	0xbfd201927c107d29	-0.2813459598127844
238	0xbff105fac63a7772	-1.0639598601623814
239	0x3fc90e0aa22571ec	0.19574101369188612
240	0xbfedf60b2ff8646f	-0.9362846314353542
241	0x3fe59771b5dda44a	0.674736838537805
242	0x3fe4d98994bb3980	0.6515548615368942
243	0x3fe1d26400c647e6	0.5569324507835034
244	0xbfc2dcfd17266557	-0.14736903791780762
245	0xbfc9594781c7fecf	-0.19803708874677858
246	0xbfc213debfc90705	-0.1412313877536279
247	0xbfe88fca7c3f3f6d	-0.7675526072216435
248	0x3fdafd2d131d2ce9	0.4217026411685781
249	0xbfcae532605ad7f4	-0.2101195307238296
250	0x3ff70c29922dc8fc	1.440469332705617
251	0x4003a83e7f8fb706	2.4571504560216253
252	0x3fed16445425f1fc	0.9089681285400384
253	0xbfdc63249ff2e089	-0.44355121250146873
254	0xbffcbfe2e063444e	-1.796847225680057
255	0xbfce2da787c6b0b6	-0.23576826219266928

network.0.bias f8 [80]
0	0xbfb3ff6725e942da	-0.07811588931623295
1	0xbfa6df555ad3be54	-0.04467264875154045
2	0xbfb2f89b3422d319	-0.07410593054630644
3	0x3fa6e7c67e6d2d75	0.04473705571453027
4	0x3fb5f14e894b0d6e	0.08571329929241298
5	0x3fe0ac124eaa18e6	0.5210048233427897
6	0xbf9f591151c00e92	-0.03061320363487014
7	0xbfbc6f31da4f4185	-0.11107169704269466
8	0x3faaa905461b55fb	0.05207077484889663
9	0xbfab0de267eafeb0	-0.05284030455140731
10	0xbfce3b6a34683fa2	-0.23618819769808136
11	0xbfdcaa16d2312338	-0.44788141752774235
12	0xbfad1237800090a4	-0.05677960813071195
13	0xbfba6d691aab8789	-0.10323197270511576
14	0xbf8746e3fa04aedf	-0.011365681712582397
15	0x3fd95b147883fd2c	0.396184079829214
16	0xbfce23d02cbb3612	-0.23546793159623342
17	0x3f95865f0e44364d	0.021020398374324057
18	0x3f889149a975e3d3	0.01199586437609127
19	0xbfb95758db65b047	-0.09898906093957392
20	0xbf67902533712ab2	-0.002876351030442003
21	0x3f5c6aa2dc357fc2	0.0017344084197574582
22	0x3fb6960754a13a76	0.08822675529629884
23	0x3fbff4255ace3811	0.12481912104541971
24	0xbfe0712d3c241abe	-0.5138155150060226
25	0x3fb482d6309f16e4	0.08012140929266881
26	0x3fa1fb719de9509c	0.03512148907307841
27	0x3fb21e24c72ac8a9	0.07077245581129667
28	0xbf991bd72cacafb8	-0.024520265676229974
29	0x3fa17a76ef460421	0.034137455661955814
30	0xbfa31e31351161e9	-0.03733972332765118
31	0xbfc0864404d4026c	-0.12909746394872756
32	0xbfc8a35dc65bbaa9	-0.19248554406609245
33	0x3fd50d08cdf1f517	0.32892055618124644
34	0xbfbdf91091633729	-0.11708167600155818
35	0xbfda6ba0fcb81d7b	-0.4128191440545021
36	0x3f8d13bf7ecca40c	0.014197822625265054
37	0xbfc759218f949a24	-0.18240756521954993
38	0xbf9c73eb2df22e4b	-0.027785944632837716
39	0xbfb242fde442a902	-0.07133471319926701
40	0xbfb6a21d1147cffb	-0.08841115638625745
41	0x3fcf0f1c0ab5bbe7	0.2426486065191675
42	0x3fd430b06fbed43b	0.3154717532409596
43	0x3fce2390a10c4536	0.23546035636585722
44	0xbf9c137230bd3ecb	-0.027417930817420093
45	0xbf832ff837d0fc5d	-0.009368838504199834
46	0x3fa6d5c7bab87d2a	0.04459976343445711
47	0x3f693a1f8c3f0266	0.0030794731301003074
48	0xbfab4cf751852cfd	-0.05332157964820714
49	0x3fe3f4a1a6cd26ef	0.6236122377242433
50	0x3fb4cc32284f5ad4	0.08124078258638728
51	0xbfb57d840dda0d60	-0.08394646967103858
52	0xbfe06e8d4d444f74	-0.5134951123350064
53	0x3fc8b056b9fe8119	0.19288143235918012
54	0x3f7604a5f9aa64d6	0.005375526753277534
55	0x3fa23b9f42deb8be	0.035611130631296714
56	0xbfc9fe14486465a3	-0.20306638273977481
57	0xbfe0a38b08091976	-0.5199637562698587
58	0x3fa16b4779a37e6f	0.03402160034033563
59	0x3fa5f2d627bd005f	0.04286832079969893
60	0x3fd55c4d52eaf5ca	0.33375866982882185
61	0xbfae25ba2e977d10	-0.05888158625361417
62	0x3fc67abe63847358	0.17562084063765826
63	0xbfc0f65fcfca82c1	-0.13251874586150872
64	0xbfc4217be8cafedd	-0.15727185122340517
65	0x3fc6f794313f7e8a	0.17943050770462704
66	0x3fdadb575b8ec7f7	0.4196375269049208
67	0x3f6c77ceb82bc9e6	0.003475097416747663
68	0xbfd8d3e331c8b351	-0.3879325853511562
69	0xbfae46ab436dbd99	-0.05913291166404661
70	0x3fab3a53006a635e	0.05317935352395041
71	0x3fabf8c68c25db68	0.054632382018943215
72	0x3fa330dcbb27000b	0.0374821642358257
73	0x3fbf95b2ccb1a416	0.12337796685609734
74	0xbfa0354a6693ad46	-0.03165657522353142
75	0xbfd6b9598215fbc5	-0.35506284431170015
76	0xbfb5e18f4071884f	-0.08547301600768374
77	0xbf953ed865c7fa5c	-0.0207475483057301
78	0xbfc2b9cd275af5e9	-0.14629520818372946
79	0x3f8facb056af56bf	0.015466096539891947

network.2.weight f8 [2, 80]
0	0x3fdd10d9db8cb797	0.4541535038032349
1	0x3fe7700e73c67a49	0.7324287663685222
2	0x3fd28e57ad7dea13	0.289937896180761
3	0x3fa515c83b83668b	0.04118180967789183
4	0xbfdc1d9572c93bf9	-0.43930565080239564
5	0x3ff703632dd8942b	1.4383270064220237
6	0xbfc67cdab67084c2	-0.17568525226764647
7	0xbfba02cb6b1fce07	-0.10160514226281957
8	0x3fb1a1d280ee3189	0.06887546203342344
9	0xbfc34353d1bfed36	-0.15049216977772922
10	0xbfe0e9d41ab6a0f7	-0.5285435220476121
11	0xbfdfecfb9c4af246	-0.4988392854973295
12	0xbfc06bfa5153729b	-0.1282952210521174
13	0x3fd90ef100649990	0.3915369514310436
14	0xbf647f1c5e06ba8b	-0.0025020174072872318
15	0x3fe6fef2d1a4dac2	0.7186216444595959
16	0xbfd26d5c3af0afdf	-0.28792482143285086
17	0xbfb1ba94142fbe60	-0.06925321095308723
18	0xbfd8c939f7c1939e	-0.3872818870061624
19	0x3fe4aa41be1dc4af	0.6457833016594544
20	0xbfef4f7dd178da79	-0.9784535495044359
21	0x3fd090a1fb69093b	0.2588276820353205
22	0xbf944b488496edd1	-0.019818432896256347
23	0x3fefdacce190cf7e	0.9954590230540672
24	0xbff4e5a7973bf2c8	-1.3060680301270384
25	0x3f937a57a1e7ec64	0.019021386391596798
26	0xbfc5e28bafdf2925	-0.17097612464414982
27	0xbfb7f5a23f5e8d42	-0.09359182402709101
28	0x3fde82dbd4ff9fa0	0.47673698235166206
29	0xbff78de4cdb49a86	-1.4721420321817802
30	0xbf9bc1b3e79a80d2	-0.027106104861218956
31	0xbfdade439ec6b928	-0.4198159266042176
32	0xbfd02b9697dbeb2a	-0.25266041593538324
33	0xbf80c141aafa979b	-0.008181107550011826
34	0xbfde3cc79a73da6f	-0.4724596985173894
35	0xbfdfb1301c997795	-0.4951896933833891
36	0x3fcb65fb74860ae1	0.21404975118283345
37	0xbfed8fb7f313a2c4	-0.9237937686530917
38	0xbfce011e462a83b8	-0.2344091265304351
39	0x3fd4405de5c707c7	0.31642863692479434
40	0xbfc25d472da7dad8	-0.14347161988526724
41	0xbfd7715f09ab4c49	-0.3662946314263463
42	0xbfd1ceff9d7b7104	-0.27825918559189255
43	0xbfc8a545fe2e8818	-0.1925437441942115
44	0xbfc6c4e11675f87d	-0.17788327786178462
45	0x3fa7f7bf8a696ff1	0.04681204380605653
46	0x3fd6c13f0b0ba13e	0.3555448158135909
47	0x3fba2c81ae20f0ba	0.10224161626041708
48	0x3fd4144d15b4c192	0.31373908157095187
49	0xbf9f992891b4c3d4	-0.030857690709300403
50	0x3fbe033c264e054d	0.1172368615643979
51	0xbf90440d60852589	-0.015884598747367504
52	0x3fdeec5b0477d11c	0.48317599712687964
53	0x3fec046c2c8a71d3	0.8755398626267897
54	0x3fd279e4a8acd36c	0.28868977043321453
55	0x3fd901cae40c44c4	0.3907344080954085
56	0xbfd1fdf1353d770d	-0.28112440299251845
57	0xbfd432579b3af4ce	-0.31557264479836256
58	0xbfd468680bbf9b30	-0.3188724627238342
59	0x3fb9a01a8325a34f	0.10009923650580997
60	0xbfe9951ccbdcdb9f	-0.7994522077268477
61	0xbfbb98da38ca3d25	-0.10780109297251224
62	0xbfd4d0a4c8a4f61b	-0.3252346000116135
63	0x3fc8fd8a8fb06a4e	0.19523746505804457
64	0xc0030a2c4934e6b6	-2.3799672812718553
65	0x3fff8e20617f6f25	1.972198849535695
66	0xbfdb1f4496f4c35b	-0.4237834428959581
67	0xbfba499dc078e972	-0.10268579434424455
68	0xbff9b66b60c4908d	-1.6070359973901163
69	0xbfcdc34c31822402	-0.2325225106945084
70	0xbfed27d7236ea146	-0.9111133281740329
71	0xbfe4591f7b235011	-0.6358792691266918
72	0xbfb7d0bd23ed66c8	-0.09302885176785047
73	0x3fa71bb93cd91198	0.04513338916561621
74	0xbf7dbb068548dc6e	-0.007258439513456156
75	0xbfe6a7d8c5e143de	-0.7079891075937856
76	0x3fc2727fd924518c	0.14411924460058534
77	0xbfe56e9af4f722f8	-0.6697516235809351
78	0xbfde66ebed9308e2	-0.47503183556194817
79	0x3f778767d369ebb0	0.005744367189090591
80	0xbfd1340595eeb84d	-0.26880015985341715
81	0xbfe85e5d11ebddb4	-0.7615189886118316
82	0xbfe44b1beb020a05	-0.6341685857772182
83	0x3fb5d99bd4e9fd5a	0.08535169551941149
84	0x3fd211ab64a2a947	0.28232846095729197
85	0x3ff37020034205f6	1.2148742797147611
86	0x3fcb97ee1bdd4d36	0.21557403908318812
87	0x3fa471a20648f542	0.03992945028992746
88	0xbfbc531f8782a6a3	-0.11064335878713875
89	0xbfd2ed554676aac9	-0.29573566323476236
90	0xbfc180d350a1fd4d	-0.1367439407076553
91	0xbfe874d4121ebe76	-0.7642612794788437
92	0x3fa7e3497b50f147	0.04665593748402102
93	0x3fa6804818ff2457	0.043947461177204765
94	0x3fc01832d49384ff	0.12573848132800688
95	0x3fc269756ecd6c46	0.1438433447864062
96	0xbfcf83bf8fce879d	-0.2462081386739187
97	0x3fd8d99d4c481c8e	0.3882821316660249
98	0x3fd515332527b15b	0.329418932232121
99	0xbfe007ebe1b3d542	-0.5009669693232939
100	0xbfbd573da83557e4	-0.1146124396958324
101	0xbf94c8a2a2a5cc36	-0.020296612908577503
102	0xbfd8ee5e93ea149f	-0.3895489162899341
103	0xbfd242eed22ec30e	-0.28533525968218576
104	0xbf9afcd8f72a398f	-0.026355161748648433
105	0x3f91c46a139649fc	0.017350823827266368
106	0xbf99edb01ea64112	-0.025320770140354894
107	0x3fd0efe50cd0219e	0.2646420121314125
108	0x3fa6e871193b8761	0.04474214013113343
109	0xbfebcd571c7678ae	-0.8688159519113208
110	0xbfb7e5bb20513739	-0.09334916628833136
111	0x3fcba28daf241796	0.21589823772245315
112	0xbfe2b85499fd6334	-0.5850012786496337
113	0x3fd378a451a73865	0.3042383954424451
114	0xbfddfbdad67a72b8	-0.4684969992174888
115	0xbff27d211a3b69d1	-1.1555491470995671
116	0xbfc202d0e47c7fc1	-0.1407109370857125
117	0x3fe536108026ddad	0.6628496649708971
118	0xbfd009deaae96786	-0.25060240450476845
119	0xbff3b3ed5bdda4c6	-1.231427534914745
120	0xbff1954638755757	-1.098943920650944
121	0xbfc80dfd03189466	-0.1879268899075754
122	0x3fcacfd1f8d3393f	0.2094671692816039
123	0xbff6eb704c1716bc	-1.4324801418564865
124	0xbfd4fefd753de9a8	-0.3280633587779911
125	0xbf4e7ba3421d6312	-0.000930266109416685
126	0xbfe0ae26605b2a71	-0.5212585336642644
127	0xbfc4f21a21d3964b	-0.16363836909947546
128	0x3f769b419b944063	0.005519157676886352
129	0x3ff59645fe3a731b	1.349187844352122
130	0xbfa6ab353b00b270	-0.044274962856751254
131	0xbfb3daae48eca9d9	-0.07755555420286643
132	0xbff0ac31dfdd2c85	-1.0420397514997444
133	0xbfbbd089a8750d70	-0.10865078318334098
134	0x3fbdccf79ae88dce	0.1164088013834352
135	0xbfd3fdfc6605ea92	-0.31237707102960954
136	0xbfdbdf8a565c3139	-0.435518822036801
137	0xbfdac30597ba5a18	-0.41815318886929864
138	0xbfcd701a85131796	-0.22998363015920792
139	0xbfe1a9e3b6111688	-0.5519884639731609
140	0x3ff03436ad21637d	1.012747455874176
141	0x3fd68330ac9211d3	0.3517572102794279
142	0xbfe65cb8f2185273	-0.6988186577242018
143	0xbfda8c16f42cbb47	-0.4148003944891809
144	0xbfd4946645df0523	-0.3215575868926683
145	0x3fe921eea57dba26	0.7853921158073873
146	0x3fc7de90f58e1eeb	0.18647968282697688
147	0x3f78bc2237e2bc54	0.00603879324459829
148	0xbfd182e88523c6b5	-0.27361500741890704
149	0xbf92b4cba31042e2	-0.018267804935080963
150	0x3fc0526e061dbf39	0.12751555727617772
151	0x3fd1d8378fc58d26	0.2788218406696664
152	0x3fd4e123c6fc4063	0.326241440126074
153	0x3fd13ce5b5773ed6	0.2693418762328127
154	0xbf9d3aa2fc6ce583	-0.028543993622610408
155	0x3fea0bfe2ebeb22a	0.8139639771448561
156	0x3fd00e88861746c0	0.25088704199616174
157	0x3fe64c92104e396b	0.6968469923465767
158	0xbfc4c13f8c1cfdc7	-0.16214746800868182
159	0x3fb2761d67fd71d2	0.07211478985613631

network.2.bias f8 [2]
0	0xbfd4b6a6b11eca00	-0.3236481408777365
1	0xbfbcf6cc4733d950	-0.11314083803504116
